…
------------------------------------------------------ LOADING MODELS -----------------------------------------------------
Loading Time: 0:00:02
Model: "model"
__________________________________________________________________________________________________
 Layer (type)                   Output Shape         Param #     Connected to                     
==================================================================================================
 input (InputLayer)             [(None, 1921)]       0           []                               
                                                                                                  
 hidden1_1024 (Dense)           (None, 1024)         1968128     ['input[0][0]']                  
                                                                                                  
 activation1_swish (Activation)  (None, 1024)        0           ['hidden1_1024[0][0]']           
                                                                                                  
 hidden2_1024 (Dense)           (None, 1024)         1049600     ['activation1_swish[0][0]']      
                                                                                                  
 activation2_swish (Activation)  (None, 1024)        0           ['hidden2_1024[0][0]']           
                                                                                                  
 hidden3_256 (Dense)            (None, 256)          262400      ['activation2_swish[0][0]']      
                                                                                                  
 activation3_swish (Activation)  (None, 256)         0           ['hidden3_256[0][0]']            
                                                                                                  
 hidden4_2048 (Dense)           (None, 2048)         526336      ['activation3_swish[0][0]']      
                                                                                                  
 activation4_swish (Activation)  (None, 2048)        0           ['hidden4_2048[0][0]']           
                                                                                                  
 hidden5_2048 (Dense)           (None, 2048)         4196352     ['activation4_swish[0][0]']      
                                                                                                  
 activation5_swish (Activation)  (None, 2048)        0           ['hidden5_2048[0][0]']           
                                                                                                  
 dropout5_0.3 (Dropout)         (None, 2048)         0           ['activation5_swish[0][0]']      
                                                                                                  
 output_coeff_91 (Dense)        (None, 91)           186459      ['dropout5_0.3[0][0]']           
                                                                                                  
 output_identifier_1 (Dense)    (None, 13)           26637       ['dropout5_0.3[0][0]']           
                                                                                                  
 output_identifier_2 (Dense)    (None, 13)           26637       ['dropout5_0.3[0][0]']           
                                                                                                  
 output_identifier_3 (Dense)    (None, 13)           26637       ['dropout5_0.3[0][0]']           
                                                                                                  
 output_identifier_4 (Dense)    (None, 13)           26637       ['dropout5_0.3[0][0]']           
                                                                                                  
 output_identifier_5 (Dense)    (None, 13)           26637       ['dropout5_0.3[0][0]']           
                                                                                                  
 output_identifier_6 (Dense)    (None, 13)           26637       ['dropout5_0.3[0][0]']           
                                                                                                  
 output_identifier_7 (Dense)    (None, 13)           26637       ['dropout5_0.3[0][0]']           
                                                                                                  
 output_leaf_node_8 (Dense)     (None, 8)            16392       ['dropout5_0.3[0][0]']           
                                                                                                  
 output_combined (Concatenate)  (None, 190)          0           ['output_coeff_91[0][0]',        
                                                                  'output_identifier_1[0][0]',    
                                                                  'output_identifier_2[0][0]',    
                                                                  'output_identifier_3[0][0]',    
                                                                  'output_identifier_4[0][0]',    
…
