…
------------------------------------------------------ LOADING MODELS -----------------------------------------------------
Loading Time: 0:00:01
Model: "model_1"
__________________________________________________________________________________________________
 Layer (type)                   Output Shape         Param #     Connected to                     
==================================================================================================
 input (InputLayer)             [(None, 3841)]       0           []                               
                                                                                                  
 hidden1_1024 (Dense)           (None, 1024)         3934208     ['input[0][0]']                  
                                                                                                  
 activation1_swish (Activation)  (None, 1024)        0           ['hidden1_1024[0][0]']           
                                                                                                  
 hidden2_1024 (Dense)           (None, 1024)         1049600     ['activation1_swish[0][0]']      
                                                                                                  
 activation2_swish (Activation)  (None, 1024)        0           ['hidden2_1024[0][0]']           
                                                                                                  
 hidden3_256 (Dense)            (None, 256)          262400      ['activation2_swish[0][0]']      
                                                                                                  
 activation3_swish (Activation)  (None, 256)         0           ['hidden3_256[0][0]']            
                                                                                                  
 hidden4_2048 (Dense)           (None, 2048)         526336      ['activation3_swish[0][0]']      
                                                                                                  
 activation4_swish (Activation)  (None, 2048)        0           ['hidden4_2048[0][0]']           
                                                                                                  
 hidden5_2048 (Dense)           (None, 2048)         4196352     ['activation4_swish[0][0]']      
                                                                                                  
 activation5_swish (Activation)  (None, 2048)        0           ['hidden5_2048[0][0]']           
                                                                                                  
 dropout5_0.3 (Dropout)         (None, 2048)         0           ['activation5_swish[0][0]']      
                                                                                                  
 output_coeff_196 (Dense)       (None, 196)          401604      ['dropout5_0.3[0][0]']           
                                                                                                  
 output_identifier_1 (Dense)    (None, 28)           57372       ['dropout5_0.3[0][0]']           
                                                                                                  
 output_identifier_2 (Dense)    (None, 28)           57372       ['dropout5_0.3[0][0]']           
                                                                                                  
 output_identifier_3 (Dense)    (None, 28)           57372       ['dropout5_0.3[0][0]']           
                                                                                                  
 output_identifier_4 (Dense)    (None, 28)           57372       ['dropout5_0.3[0][0]']           
                                                                                                  
 output_identifier_5 (Dense)    (None, 28)           57372       ['dropout5_0.3[0][0]']           
                                                                                                  
 output_identifier_6 (Dense)    (None, 28)           57372       ['dropout5_0.3[0][0]']           
                                                                                                  
 output_identifier_7 (Dense)    (None, 28)           57372       ['dropout5_0.3[0][0]']           
                                                                                                  
 output_leaf_node_8 (Dense)     (None, 8)            16392       ['dropout5_0.3[0][0]']           
                                                                                                  
 output_combined (Concatenate)  (None, 400)          0           ['output_coeff_196[0][0]',       
                                                                  'output_identifier_1[0][0]',    
                                                                  'output_identifier_2[0][0]',    
                                                                  'output_identifier_3[0][0]',    
                                                                  'output_identifier_4[0][0]',    
…
