…
------------------------------------------------------ LOADING MODELS -----------------------------------------------------
Loading Time: 0:00:02
Model: "model"
__________________________________________________________________________________________________
 Layer (type)                   Output Shape         Param #     Connected to                     
==================================================================================================
 input (InputLayer)             [(None, 1409)]       0           []                               
                                                                                                  
 hidden1_1792 (Dense)           (None, 1792)         2526720     ['input[0][0]']                  
                                                                                                  
 activation1_sigmoid (Activatio  (None, 1792)        0           ['hidden1_1792[0][0]']           
 n)                                                                                               
                                                                                                  
 hidden2_512 (Dense)            (None, 512)          918016      ['activation1_sigmoid[0][0]']    
                                                                                                  
 activation2_sigmoid (Activatio  (None, 512)         0           ['hidden2_512[0][0]']            
 n)                                                                                               
                                                                                                  
 hidden3_512 (Dense)            (None, 512)          262656      ['activation2_sigmoid[0][0]']    
                                                                                                  
 activation3_sigmoid (Activatio  (None, 512)         0           ['hidden3_512[0][0]']            
 n)                                                                                               
                                                                                                  
 dropout3_0.5 (Dropout)         (None, 512)          0           ['activation3_sigmoid[0][0]']    
                                                                                                  
 output_coeff_63 (Dense)        (None, 63)           32319       ['dropout3_0.5[0][0]']           
                                                                                                  
 output_identifier_1 (Dense)    (None, 9)            4617        ['dropout3_0.5[0][0]']           
                                                                                                  
 output_identifier_2 (Dense)    (None, 9)            4617        ['dropout3_0.5[0][0]']           
                                                                                                  
 output_identifier_3 (Dense)    (None, 9)            4617        ['dropout3_0.5[0][0]']           
                                                                                                  
 output_identifier_4 (Dense)    (None, 9)            4617        ['dropout3_0.5[0][0]']           
                                                                                                  
 output_identifier_5 (Dense)    (None, 9)            4617        ['dropout3_0.5[0][0]']           
                                                                                                  
 output_identifier_6 (Dense)    (None, 9)            4617        ['dropout3_0.5[0][0]']           
                                                                                                  
 output_identifier_7 (Dense)    (None, 9)            4617        ['dropout3_0.5[0][0]']           
                                                                                                  
 output_bias_7 (Dense)          (None, 7)            3591        ['dropout3_0.5[0][0]']           
                                                                                                  
 output_leaf_nodes_16 (Dense)   (None, 16)           8208        ['dropout3_0.5[0][0]']           
                                                                                                  
 output_combined (Concatenate)  (None, 149)          0           ['output_coeff_63[0][0]',        
                                                                  'output_identifier_1[0][0]',    
                                                                  'output_identifier_2[0][0]',    
                                                                  'output_identifier_3[0][0]',    
                                                                  'output_identifier_4[0][0]',    
…
