…
------------------------------------------------------ LOADING MODELS -----------------------------------------------------
Loading Time: 0:00:01
Model: "model_1"
__________________________________________________________________________________________________
 Layer (type)                   Output Shape         Param #     Connected to                     
==================================================================================================
 input (InputLayer)             [(None, 3841)]       0           []                               
                                                                                                  
 hidden1_1024 (Dense)           (None, 1024)         3934208     ['input[0][0]']                  
                                                                                                  
 activation1_relu (Activation)  (None, 1024)         0           ['hidden1_1024[0][0]']           
                                                                                                  
 hidden2_1024 (Dense)           (None, 1024)         1049600     ['activation1_relu[0][0]']       
                                                                                                  
 activation2_relu (Activation)  (None, 1024)         0           ['hidden2_1024[0][0]']           
                                                                                                  
 hidden3_256 (Dense)            (None, 256)          262400      ['activation2_relu[0][0]']       
                                                                                                  
 activation3_relu (Activation)  (None, 256)          0           ['hidden3_256[0][0]']            
                                                                                                  
 hidden4_2048 (Dense)           (None, 2048)         526336      ['activation3_relu[0][0]']       
                                                                                                  
 activation4_relu (Activation)  (None, 2048)         0           ['hidden4_2048[0][0]']           
                                                                                                  
 hidden5_2048 (Dense)           (None, 2048)         4196352     ['activation4_relu[0][0]']       
                                                                                                  
 activation5_relu (Activation)  (None, 2048)         0           ['hidden5_2048[0][0]']           
                                                                                                  
 dropout5_0.3 (Dropout)         (None, 2048)         0           ['activation5_relu[0][0]']       
                                                                                                  
 dense_64 (Dense)               (None, 196)          401604      ['dropout5_0.3[0][0]']           
                                                                                                  
 output_bias_7 (Dense)          (None, 7)            14343       ['dropout5_0.3[0][0]']           
                                                                                                  
 output_leaf_nodes_16 (Dense)   (None, 16)           32784       ['dropout5_0.3[0][0]']           
                                                                                                  
 output_combined (Concatenate)  (None, 219)          0           ['dense_64[0][0]',               
                                                                  'output_bias_7[0][0]',          
                                                                  'output_leaf_nodes_16[0][0]']   
                                                                                                  
==================================================================================================
…
