…
------------------------------------------------------ LOADING MODELS -----------------------------------------------------
Loading Time: 0:00:01
Model: "model_1"
__________________________________________________________________________________________________
 Layer (type)                   Output Shape         Param #     Connected to                     
==================================================================================================
 input (InputLayer)             [(None, 4353)]       0           []                               
                                                                                                  
 lambda_2 (Lambda)              (None, 256)          0           ['input[0][0]']                  
                                                                                                  
 lambda_3 (Lambda)              (None, 256)          0           ['input[0][0]']                  
                                                                                                  
 hidden1_bias_1792 (Dense)      (None, 1792)         460544      ['lambda_2[0][0]']               
                                                                                                  
 hidden1_weight_1792 (Dense)    (None, 1792)         460544      ['lambda_3[0][0]']               
                                                                                                  
 activation1_bias_sigmoid (Acti  (None, 1792)        0           ['hidden1_bias_1792[0][0]']      
 vation)                                                                                          
                                                                                                  
 activation1_weight_sigmoid (Ac  (None, 1792)        0           ['hidden1_weight_1792[0][0]']    
 tivation)                                                                                        
                                                                                                  
 hidden_bias2_512 (Dense)       (None, 512)          918016      ['activation1_bias_sigmoid[0][0]'
                                                                 ]                                
                                                                                                  
 hidden_weight2_512 (Dense)     (None, 512)          918016      ['activation1_weight_sigmoid[0][0
                                                                 ]']                              
                                                                                                  
 activation_bias2_sigmoid (Acti  (None, 512)         0           ['hidden_bias2_512[0][0]']       
 vation)                                                                                          
                                                                                                  
 activation_weight2_sigmoid (Ac  (None, 512)         0           ['hidden_weight2_512[0][0]']     
 tivation)                                                                                        
                                                                                                  
 hidden_bias3_512 (Dense)       (None, 512)          262656      ['activation_bias2_sigmoid[0][0]'
                                                                 ]                                
                                                                                                  
 hidden_weight3_512 (Dense)     (None, 512)          262656      ['activation_weight2_sigmoid[0][0
                                                                 ]']                              
                                                                                                  
 activation_bias3_sigmoid (Acti  (None, 512)         0           ['hidden_bias3_512[0][0]']       
 vation)                                                                                          
                                                                                                  
 activation_weight3_sigmoid (Ac  (None, 512)         0           ['hidden_weight3_512[0][0]']     
 tivation)                                                                                        
                                                                                                  
 dropout_bias3_0.5 (Dropout)    (None, 512)          0           ['activation_bias3_sigmoid[0][0]'
                                                                 ]                                
                                                                                                  
 dropout_weight3_0.5 (Dropout)  (None, 512)          0           ['activation_weight3_sigmoid[0][0
                                                                 ]']                              
                                                                                                  
 hidden_combined (Concatenate)  (None, 1024)         0           ['dropout_bias3_0.5[0][0]',      
                                                                  'dropout_weight3_0.5[0][0]']    
                                                                                                  
 output_coeff_224 (Dense)       (None, 224)          229600      ['hidden_combined[0][0]']        
                                                                                                  
 output_identifier_1 (Dense)    (None, 32)           32800       ['hidden_combined[0][0]']        
                                                                                                  
 output_identifier_2 (Dense)    (None, 32)           32800       ['hidden_combined[0][0]']        
                                                                                                  
 output_identifier_3 (Dense)    (None, 32)           32800       ['hidden_combined[0][0]']        
                                                                                                  
 output_identifier_4 (Dense)    (None, 32)           32800       ['hidden_combined[0][0]']        
                                                                                                  
 output_identifier_5 (Dense)    (None, 32)           32800       ['hidden_combined[0][0]']        
                                                                                                  
 output_identifier_6 (Dense)    (None, 32)           32800       ['hidden_combined[0][0]']        
                                                                                                  
 output_identifier_7 (Dense)    (None, 32)           32800       ['hidden_combined[0][0]']        
                                                                                                  
 output_leaf_node_8 (Dense)     (None, 8)            8200        ['hidden_combined[0][0]']        
                                                                                                  
 output_combined (Concatenate)  (None, 456)          0           ['output_coeff_224[0][0]',       
                                                                  'output_identifier_1[0][0]',    
                                                                  'output_identifier_2[0][0]',    
                                                                  'output_identifier_3[0][0]',    
                                                                  'output_identifier_4[0][0]',    
…
