…
------------------------------------------------------ LOADING MODELS -----------------------------------------------------
Loading Time: 0:00:00
Model: "model_1"
__________________________________________________________________________________________________
 Layer (type)                   Output Shape         Param #     Connected to                     
==================================================================================================
 input (InputLayer)             [(None, 4353)]       0           []                               
                                                                                                  
 hidden1_4096 (Dense)           (None, 4096)         17833984    ['input[0][0]']                  
                                                                                                  
 activation1_swish (Activation)  (None, 4096)        0           ['hidden1_4096[0][0]']           
                                                                                                  
 hidden2_2048 (Dense)           (None, 2048)         8390656     ['activation1_swish[0][0]']      
                                                                                                  
 activation2_swish (Activation)  (None, 2048)        0           ['hidden2_2048[0][0]']           
                                                                                                  
 dropout2_0.5 (Dropout)         (None, 2048)         0           ['activation2_swish[0][0]']      
                                                                                                  
 output_coeff_224 (Dense)       (None, 224)          458976      ['dropout2_0.5[0][0]']           
                                                                                                  
 output_identifier_1 (Dense)    (None, 32)           65568       ['dropout2_0.5[0][0]']           
                                                                                                  
 output_identifier_2 (Dense)    (None, 32)           65568       ['dropout2_0.5[0][0]']           
                                                                                                  
 output_identifier_3 (Dense)    (None, 32)           65568       ['dropout2_0.5[0][0]']           
                                                                                                  
 output_identifier_4 (Dense)    (None, 32)           65568       ['dropout2_0.5[0][0]']           
                                                                                                  
 output_identifier_5 (Dense)    (None, 32)           65568       ['dropout2_0.5[0][0]']           
                                                                                                  
 output_identifier_6 (Dense)    (None, 32)           65568       ['dropout2_0.5[0][0]']           
                                                                                                  
 output_identifier_7 (Dense)    (None, 32)           65568       ['dropout2_0.5[0][0]']           
                                                                                                  
 output_bias_7 (Dense)          (None, 7)            14343       ['dropout2_0.5[0][0]']           
                                                                                                  
 output_leaf_nodes_16 (Dense)   (None, 16)           32784       ['dropout2_0.5[0][0]']           
                                                                                                  
 output_combined (Concatenate)  (None, 471)          0           ['output_coeff_224[0][0]',       
                                                                  'output_identifier_1[0][0]',    
                                                                  'output_identifier_2[0][0]',    
                                                                  'output_identifier_3[0][0]',    
                                                                  'output_identifier_4[0][0]',    
…
