…
------------------------------------------------------ LOADING MODELS -----------------------------------------------------
Loading Time: 0:00:01
Model: "model"
__________________________________________________________________________________________________
 Layer (type)                   Output Shape         Param #     Connected to                     
==================================================================================================
 input (InputLayer)             [(None, 1921)]       0           []                               
                                                                                                  
 hidden1_1792 (Dense)           (None, 1792)         3444224     ['input[0][0]']                  
                                                                                                  
 activation1_swish (Activation)  (None, 1792)        0           ['hidden1_1792[0][0]']           
                                                                                                  
 hidden2_512 (Dense)            (None, 512)          918016      ['activation1_swish[0][0]']      
                                                                                                  
 activation2_swish (Activation)  (None, 512)         0           ['hidden2_512[0][0]']            
                                                                                                  
 hidden3_512 (Dense)            (None, 512)          262656      ['activation2_swish[0][0]']      
                                                                                                  
 activation3_swish (Activation)  (None, 512)         0           ['hidden3_512[0][0]']            
                                                                                                  
 dropout3_0.5 (Dropout)         (None, 512)          0           ['activation3_swish[0][0]']      
                                                                                                  
 output_coeff_91 (Dense)        (None, 91)           46683       ['dropout3_0.5[0][0]']           
                                                                                                  
 output_identifier_1 (Dense)    (None, 13)           6669        ['dropout3_0.5[0][0]']           
                                                                                                  
 output_identifier_2 (Dense)    (None, 13)           6669        ['dropout3_0.5[0][0]']           
                                                                                                  
 output_identifier_3 (Dense)    (None, 13)           6669        ['dropout3_0.5[0][0]']           
                                                                                                  
 output_identifier_4 (Dense)    (None, 13)           6669        ['dropout3_0.5[0][0]']           
                                                                                                  
 output_identifier_5 (Dense)    (None, 13)           6669        ['dropout3_0.5[0][0]']           
                                                                                                  
 output_identifier_6 (Dense)    (None, 13)           6669        ['dropout3_0.5[0][0]']           
                                                                                                  
 output_identifier_7 (Dense)    (None, 13)           6669        ['dropout3_0.5[0][0]']           
                                                                                                  
 output_leaf_node_8 (Dense)     (None, 8)            4104        ['dropout3_0.5[0][0]']           
                                                                                                  
 output_combined (Concatenate)  (None, 190)          0           ['output_coeff_91[0][0]',        
                                                                  'output_identifier_1[0][0]',    
                                                                  'output_identifier_2[0][0]',    
                                                                  'output_identifier_3[0][0]',    
                                                                  'output_identifier_4[0][0]',    
…
