…
------------------------------------------------------ LOADING MODELS -----------------------------------------------------
Loading Time: 0:00:01
Model: "model"
__________________________________________________________________________________________________
 Layer (type)                   Output Shape         Param #     Connected to                     
==================================================================================================
 input (InputLayer)             [(None, 1537)]       0           []                               
                                                                                                  
 hidden1_1792 (Dense)           (None, 1792)         2756096     ['input[0][0]']                  
                                                                                                  
 activation1_swish (Activation)  (None, 1792)        0           ['hidden1_1792[0][0]']           
                                                                                                  
 dropout1_0.3 (Dropout)         (None, 1792)         0           ['activation1_swish[0][0]']      
                                                                                                  
 hidden2_512 (Dense)            (None, 512)          918016      ['dropout1_0.3[0][0]']           
                                                                                                  
 activation2_swish (Activation)  (None, 512)         0           ['hidden2_512[0][0]']            
                                                                                                  
 dropout2_0.3 (Dropout)         (None, 512)          0           ['activation2_swish[0][0]']      
                                                                                                  
 hidden3_512 (Dense)            (None, 512)          262656      ['dropout2_0.3[0][0]']           
                                                                                                  
 activation3_swish (Activation)  (None, 512)         0           ['hidden3_512[0][0]']            
                                                                                                  
 dropout3_0.3 (Dropout)         (None, 512)          0           ['activation3_swish[0][0]']      
                                                                                                  
 output_coeff_70 (Dense)        (None, 70)           35910       ['dropout3_0.3[0][0]']           
                                                                                                  
 output_identifier_1 (Dense)    (None, 10)           5130        ['dropout3_0.3[0][0]']           
                                                                                                  
 output_identifier_2 (Dense)    (None, 10)           5130        ['dropout3_0.3[0][0]']           
                                                                                                  
 output_identifier_3 (Dense)    (None, 10)           5130        ['dropout3_0.3[0][0]']           
                                                                                                  
 output_identifier_4 (Dense)    (None, 10)           5130        ['dropout3_0.3[0][0]']           
                                                                                                  
 output_identifier_5 (Dense)    (None, 10)           5130        ['dropout3_0.3[0][0]']           
                                                                                                  
 output_identifier_6 (Dense)    (None, 10)           5130        ['dropout3_0.3[0][0]']           
                                                                                                  
 output_identifier_7 (Dense)    (None, 10)           5130        ['dropout3_0.3[0][0]']           
                                                                                                  
 output_leaf_node_8 (Dense)     (None, 8)            4104        ['dropout3_0.3[0][0]']           
                                                                                                  
 output_combined (Concatenate)  (None, 148)          0           ['output_coeff_70[0][0]',        
                                                                  'output_identifier_1[0][0]',    
                                                                  'output_identifier_2[0][0]',    
                                                                  'output_identifier_3[0][0]',    
                                                                  'output_identifier_4[0][0]',    
…
