…
------------------------------------------------------ LOADING MODELS -----------------------------------------------------
Loading Time: 0:00:00
Model: "model"
__________________________________________________________________________________________________
 Layer (type)                   Output Shape         Param #     Connected to                     
==================================================================================================
 input (InputLayer)             [(None, 3969)]       0           []                               
                                                                                                  
 hidden1_512 (Dense)            (None, 512)          2032640     ['input[0][0]']                  
                                                                                                  
 activation1_sigmoid (Activatio  (None, 512)         0           ['hidden1_512[0][0]']            
 n)                                                                                               
                                                                                                  
 dropout1_0.5 (Dropout)         (None, 512)          0           ['activation1_sigmoid[0][0]']    
                                                                                                  
 hidden2_512 (Dense)            (None, 512)          262656      ['dropout1_0.5[0][0]']           
                                                                                                  
 activation2_tanh (Activation)  (None, 512)          0           ['hidden2_512[0][0]']            
                                                                                                  
 hidden3_512 (Dense)            (None, 512)          262656      ['activation2_tanh[0][0]']       
                                                                                                  
 activation3_sigmoid (Activatio  (None, 512)         0           ['hidden3_512[0][0]']            
 n)                                                                                               
                                                                                                  
 output_coeff_203 (Dense)       (None, 203)          104139      ['activation3_sigmoid[0][0]']    
                                                                                                  
 output_identifier_1 (Dense)    (None, 29)           14877       ['activation3_sigmoid[0][0]']    
                                                                                                  
 output_identifier_2 (Dense)    (None, 29)           14877       ['activation3_sigmoid[0][0]']    
                                                                                                  
 output_identifier_3 (Dense)    (None, 29)           14877       ['activation3_sigmoid[0][0]']    
                                                                                                  
 output_identifier_4 (Dense)    (None, 29)           14877       ['activation3_sigmoid[0][0]']    
                                                                                                  
 output_identifier_5 (Dense)    (None, 29)           14877       ['activation3_sigmoid[0][0]']    
                                                                                                  
 output_identifier_6 (Dense)    (None, 29)           14877       ['activation3_sigmoid[0][0]']    
                                                                                                  
 output_identifier_7 (Dense)    (None, 29)           14877       ['activation3_sigmoid[0][0]']    
                                                                                                  
 output_leaf_node_8 (Dense)     (None, 8)            4104        ['activation3_sigmoid[0][0]']    
                                                                                                  
 output_combined (Concatenate)  (None, 414)          0           ['output_coeff_203[0][0]',       
                                                                  'output_identifier_1[0][0]',    
                                                                  'output_identifier_2[0][0]',    
                                                                  'output_identifier_3[0][0]',    
                                                                  'output_identifier_4[0][0]',    
…
