…
------------------------------------------------------ LOADING MODELS -----------------------------------------------------
Loading Time: 0:00:00
Model: "model"
__________________________________________________________________________________________________
 Layer (type)                   Output Shape         Param #     Connected to                     
==================================================================================================
 input (InputLayer)             [(None, 4353)]       0           []                               
                                                                                                  
 hidden1_512 (Dense)            (None, 512)          2229248     ['input[0][0]']                  
                                                                                                  
 activation1_sigmoid (Activatio  (None, 512)         0           ['hidden1_512[0][0]']            
 n)                                                                                               
                                                                                                  
 dropout1_0.3 (Dropout)         (None, 512)          0           ['activation1_sigmoid[0][0]']    
                                                                                                  
 hidden2_512 (Dense)            (None, 512)          262656      ['dropout1_0.3[0][0]']           
                                                                                                  
 activation2_tanh (Activation)  (None, 512)          0           ['hidden2_512[0][0]']            
                                                                                                  
 output_coeff_224 (Dense)       (None, 224)          114912      ['activation2_tanh[0][0]']       
                                                                                                  
 output_identifier_1 (Dense)    (None, 32)           16416       ['activation2_tanh[0][0]']       
                                                                                                  
 output_identifier_2 (Dense)    (None, 32)           16416       ['activation2_tanh[0][0]']       
                                                                                                  
 output_identifier_3 (Dense)    (None, 32)           16416       ['activation2_tanh[0][0]']       
                                                                                                  
 output_identifier_4 (Dense)    (None, 32)           16416       ['activation2_tanh[0][0]']       
                                                                                                  
 output_identifier_5 (Dense)    (None, 32)           16416       ['activation2_tanh[0][0]']       
                                                                                                  
 output_identifier_6 (Dense)    (None, 32)           16416       ['activation2_tanh[0][0]']       
                                                                                                  
 output_identifier_7 (Dense)    (None, 32)           16416       ['activation2_tanh[0][0]']       
                                                                                                  
 output_leaf_node_8 (Dense)     (None, 8)            4104        ['activation2_tanh[0][0]']       
                                                                                                  
 output_combined (Concatenate)  (None, 456)          0           ['output_coeff_224[0][0]',       
                                                                  'output_identifier_1[0][0]',    
                                                                  'output_identifier_2[0][0]',    
                                                                  'output_identifier_3[0][0]',    
                                                                  'output_identifier_4[0][0]',    
…
