…
------------------------------------------------------ LOADING MODELS -----------------------------------------------------
Loading Time: 0:00:02
Model: "model_1"
__________________________________________________________________________________________________
 Layer (type)                   Output Shape         Param #     Connected to                     
==================================================================================================
 input (InputLayer)             [(None, 2305)]       0           []                               
                                                                                                  
 hidden1_1792 (Dense)           (None, 1792)         4132352     ['input[0][0]']                  
                                                                                                  
 activation1_sigmoid (Activatio  (None, 1792)        0           ['hidden1_1792[0][0]']           
 n)                                                                                               
                                                                                                  
 hidden2_512 (Dense)            (None, 512)          918016      ['activation1_sigmoid[0][0]']    
                                                                                                  
 activation2_sigmoid (Activatio  (None, 512)         0           ['hidden2_512[0][0]']            
 n)                                                                                               
                                                                                                  
 hidden3_512 (Dense)            (None, 512)          262656      ['activation2_sigmoid[0][0]']    
                                                                                                  
 activation3_sigmoid (Activatio  (None, 512)         0           ['hidden3_512[0][0]']            
 n)                                                                                               
                                                                                                  
 dropout3_0.5 (Dropout)         (None, 512)          0           ['activation3_sigmoid[0][0]']    
                                                                                                  
 output_coeff_496 (Dense)       (None, 496)          254448      ['dropout3_0.5[0][0]']           
                                                                                                  
 output_identifier_1 (Dense)    (None, 16)           8208        ['dropout3_0.5[0][0]']           
                                                                                                  
 output_identifier_2 (Dense)    (None, 16)           8208        ['dropout3_0.5[0][0]']           
                                                                                                  
 output_identifier_3 (Dense)    (None, 16)           8208        ['dropout3_0.5[0][0]']           
                                                                                                  
 output_identifier_4 (Dense)    (None, 16)           8208        ['dropout3_0.5[0][0]']           
                                                                                                  
 output_identifier_5 (Dense)    (None, 16)           8208        ['dropout3_0.5[0][0]']           
                                                                                                  
 output_identifier_6 (Dense)    (None, 16)           8208        ['dropout3_0.5[0][0]']           
                                                                                                  
 output_identifier_7 (Dense)    (None, 16)           8208        ['dropout3_0.5[0][0]']           
                                                                                                  
 output_identifier_8 (Dense)    (None, 16)           8208        ['dropout3_0.5[0][0]']           
                                                                                                  
 output_identifier_9 (Dense)    (None, 16)           8208        ['dropout3_0.5[0][0]']           
                                                                                                  
 output_identifier_10 (Dense)   (None, 16)           8208        ['dropout3_0.5[0][0]']           
                                                                                                  
 output_identifier_11 (Dense)   (None, 16)           8208        ['dropout3_0.5[0][0]']           
                                                                                                  
 output_identifier_12 (Dense)   (None, 16)           8208        ['dropout3_0.5[0][0]']           
                                                                                                  
 output_identifier_13 (Dense)   (None, 16)           8208        ['dropout3_0.5[0][0]']           
                                                                                                  
 output_identifier_14 (Dense)   (None, 16)           8208        ['dropout3_0.5[0][0]']           
                                                                                                  
 output_identifier_15 (Dense)   (None, 16)           8208        ['dropout3_0.5[0][0]']           
                                                                                                  
 output_identifier_16 (Dense)   (None, 16)           8208        ['dropout3_0.5[0][0]']           
                                                                                                  
 output_identifier_17 (Dense)   (None, 16)           8208        ['dropout3_0.5[0][0]']           
                                                                                                  
 output_identifier_18 (Dense)   (None, 16)           8208        ['dropout3_0.5[0][0]']           
                                                                                                  
 output_identifier_19 (Dense)   (None, 16)           8208        ['dropout3_0.5[0][0]']           
                                                                                                  
 output_identifier_20 (Dense)   (None, 16)           8208        ['dropout3_0.5[0][0]']           
                                                                                                  
 output_identifier_21 (Dense)   (None, 16)           8208        ['dropout3_0.5[0][0]']           
                                                                                                  
 output_identifier_22 (Dense)   (None, 16)           8208        ['dropout3_0.5[0][0]']           
                                                                                                  
 output_identifier_23 (Dense)   (None, 16)           8208        ['dropout3_0.5[0][0]']           
                                                                                                  
 output_identifier_24 (Dense)   (None, 16)           8208        ['dropout3_0.5[0][0]']           
                                                                                                  
 output_identifier_25 (Dense)   (None, 16)           8208        ['dropout3_0.5[0][0]']           
                                                                                                  
 output_identifier_26 (Dense)   (None, 16)           8208        ['dropout3_0.5[0][0]']           
                                                                                                  
 output_identifier_27 (Dense)   (None, 16)           8208        ['dropout3_0.5[0][0]']           
                                                                                                  
 output_identifier_28 (Dense)   (None, 16)           8208        ['dropout3_0.5[0][0]']           
                                                                                                  
 output_identifier_29 (Dense)   (None, 16)           8208        ['dropout3_0.5[0][0]']           
                                                                                                  
 output_identifier_30 (Dense)   (None, 16)           8208        ['dropout3_0.5[0][0]']           
                                                                                                  
 output_identifier_31 (Dense)   (None, 16)           8208        ['dropout3_0.5[0][0]']           
                                                                                                  
 output_leaf_node_32 (Dense)    (None, 32)           16416       ['dropout3_0.5[0][0]']           
                                                                                                  
 output_combined (Concatenate)  (None, 1024)         0           ['output_coeff_496[0][0]',       
                                                                  'output_identifier_1[0][0]',    
                                                                  'output_identifier_2[0][0]',    
                                                                  'output_identifier_3[0][0]',    
                                                                  'output_identifier_4[0][0]',    
…
